…
decode_head.conv_seg_new.weight - torch.Size([20, 256, 1, 1]): 
Initialized by user-defined `init_weights` in SegformerHeadUnetFCHeadMultiStep  

decode_head.conv_seg_new.bias - torch.Size([20]): 
Initialized by user-defined `init_weights` in SegformerHeadUnetFCHeadMultiStep  

decode_head.embed.weight - torch.Size([20, 16]): 
Initialized by user-defined `init_weights` in SegformerHeadUnetFCHeadMultiStep  
2023-08-08 17:18:48,535 - mmseg - INFO - EncoderDecoderDiffusion(
  (backbone): MixVisionTransformerCustomInitWeights(
    (layers): ModuleList(
      (0): ModuleList(
        (0): PatchEmbed(
          (projection): Conv2d(3, 64, kernel_size=(7, 7), stride=(4, 4), padding=(3, 3))
          (norm): LayerNorm((64,), eps=1e-06, elementwise_affine=True)
        )
        (1): ModuleList(
          (0): TransformerEncoderLayer(
            (norm1): LayerNorm((64,), eps=1e-06, elementwise_affine=True)
            (attn): EfficientMultiheadAttention(
              (attn): MultiheadAttention(
                (out_proj): NonDynamicallyQuantizableLinear(in_features=64, out_features=64, bias=True)
              )
              (proj_drop): Dropout(p=0.0, inplace=False)
              (dropout_layer): DropPath()
              (sr): Conv2d(64, 64, kernel_size=(8, 8), stride=(8, 8))
              (norm): LayerNorm((64,), eps=1e-06, elementwise_affine=True)
            )
            (norm2): LayerNorm((64,), eps=1e-06, elementwise_affine=True)
            (ffn): MixFFN(
              (activate): GELU()
              (layers): Sequential(
                (0): Conv2d(64, 256, kernel_size=(1, 1), stride=(1, 1))
                (1): Conv2d(256, 256, kernel_size=(3, 3), stride=(1, 1), padding=(1, 1), groups=256)
                (2): GELU()
                (3): Dropout(p=0.0, inplace=False)
                (4): Conv2d(256, 64, kernel_size=(1, 1), stride=(1, 1))
                (5): Dropout(p=0.0, inplace=False)
              )
              (dropout_layer): DropPath()
            )
          )
          (1): TransformerEncoderLayer(
            (norm1): LayerNorm((64,), eps=1e-06, elementwise_affine=True)
            (attn): EfficientMultiheadAttention(
              (attn): MultiheadAttention(
                (out_proj): NonDynamicallyQuantizableLinear(in_features=64, out_features=64, bias=True)
              )
              (proj_drop): Dropout(p=0.0, inplace=False)
              (dropout_layer): DropPath()
              (sr): Conv2d(64, 64, kernel_size=(8, 8), stride=(8, 8))
              (norm): LayerNorm((64,), eps=1e-06, elementwise_affine=True)
            )
            (norm2): LayerNorm((64,), eps=1e-06, elementwise_affine=True)
            (ffn): MixFFN(
              (activate): GELU()
              (layers): Sequential(
                (0): Conv2d(64, 256, kernel_size=(1, 1), stride=(1, 1))
                (1): Conv2d(256, 256, kernel_size=(3, 3), stride=(1, 1), padding=(1, 1), groups=256)
                (2): GELU()
                (3): Dropout(p=0.0, inplace=False)
                (4): Conv2d(256, 64, kernel_size=(1, 1), stride=(1, 1))
                (5): Dropout(p=0.0, inplace=False)
              )
              (dropout_layer): DropPath()
            )
          )
          (2): TransformerEncoderLayer(
            (norm1): LayerNorm((64,), eps=1e-06, elementwise_affine=True)
            (attn): EfficientMultiheadAttention(
              (attn): MultiheadAttention(
                (out_proj): NonDynamicallyQuantizableLinear(in_features=64, out_features=64, bias=True)
              )
              (proj_drop): Dropout(p=0.0, inplace=False)
              (dropout_layer): DropPath()
              (sr): Conv2d(64, 64, kernel_size=(8, 8), stride=(8, 8))
              (norm): LayerNorm((64,), eps=1e-06, elementwise_affine=True)
            )
            (norm2): LayerNorm((64,), eps=1e-06, elementwise_affine=True)
            (ffn): MixFFN(
              (activate): GELU()
              (layers): Sequential(
                (0): Conv2d(64, 256, kernel_size=(1, 1), stride=(1, 1))
                (1): Conv2d(256, 256, kernel_size=(3, 3), stride=(1, 1), padding=(1, 1), groups=256)
                (2): GELU()
                (3): Dropout(p=0.0, inplace=False)
                (4): Conv2d(256, 64, kernel_size=(1, 1), stride=(1, 1))
                (5): Dropout(p=0.0, inplace=False)
              )
              (dropout_layer): DropPath()
            )
          )
        )
        (2): LayerNorm((64,), eps=1e-06, elementwise_affine=True)
      )
      (1): ModuleList(
        (0): PatchEmbed(
          (projection): Conv2d(64, 128, kernel_size=(3, 3), stride=(2, 2), padding=(1, 1))
          (norm): LayerNorm((128,), eps=1e-06, elementwise_affine=True)
        )
        (1): ModuleList(
          (0): TransformerEncoderLayer(
            (norm1): LayerNorm((128,), eps=1e-06, elementwise_affine=True)
            (attn): EfficientMultiheadAttention(
              (attn): MultiheadAttention(
                (out_proj): NonDynamicallyQuantizableLinear(in_features=128, out_features=128, bias=True)
              )
              (proj_drop): Dropout(p=0.0, inplace=False)
              (dropout_layer): DropPath()
              (sr): Conv2d(128, 128, kernel_size=(4, 4), stride=(4, 4))
              (norm): LayerNorm((128,), eps=1e-06, elementwise_affine=True)
            )
            (norm2): LayerNorm((128,), eps=1e-06, elementwise_affine=True)
            (ffn): MixFFN(
              (activate): GELU()
              (layers): Sequential(
                (0): Conv2d(128, 512, kernel_size=(1, 1), stride=(1, 1))
                (1): Conv2d(512, 512, kernel_size=(3, 3), stride=(1, 1), padding=(1, 1), groups=512)
                (2): GELU()
                (3): Dropout(p=0.0, inplace=False)
                (4): Conv2d(512, 128, kernel_size=(1, 1), stride=(1, 1))
                (5): Dropout(p=0.0, inplace=False)
              )
              (dropout_layer): DropPath()
            )
          )
          (1): TransformerEncoderLayer(
            (norm1): LayerNorm((128,), eps=1e-06, elementwise_affine=True)
            (attn): EfficientMultiheadAttention(
              (attn): MultiheadAttention(
                (out_proj): NonDynamicallyQuantizableLinear(in_features=128, out_features=128, bias=True)
              )
              (proj_drop): Dropout(p=0.0, inplace=False)
              (dropout_layer): DropPath()
              (sr): Conv2d(128, 128, kernel_size=(4, 4), stride=(4, 4))
              (norm): LayerNorm((128,), eps=1e-06, elementwise_affine=True)
            )
            (norm2): LayerNorm((128,), eps=1e-06, elementwise_affine=True)
            (ffn): MixFFN(
              (activate): GELU()
              (layers): Sequential(
                (0): Conv2d(128, 512, kernel_size=(1, 1), stride=(1, 1))
                (1): Conv2d(512, 512, kernel_size=(3, 3), stride=(1, 1), padding=(1, 1), groups=512)
                (2): GELU()
                (3): Dropout(p=0.0, inplace=False)
                (4): Conv2d(512, 128, kernel_size=(1, 1), stride=(1, 1))
                (5): Dropout(p=0.0, inplace=False)
              )
              (dropout_layer): DropPath()
            )
          )
          (2): TransformerEncoderLayer(
            (norm1): LayerNorm((128,), eps=1e-06, elementwise_affine=True)
            (attn): EfficientMultiheadAttention(
              (attn): MultiheadAttention(
                (out_proj): NonDynamicallyQuantizableLinear(in_features=128, out_features=128, bias=True)
              )
              (proj_drop): Dropout(p=0.0, inplace=False)
              (dropout_layer): DropPath()
              (sr): Conv2d(128, 128, kernel_size=(4, 4), stride=(4, 4))
              (norm): LayerNorm((128,), eps=1e-06, elementwise_affine=True)
            )
            (norm2): LayerNorm((128,), eps=1e-06, elementwise_affine=True)
            (ffn): MixFFN(
              (activate): GELU()
              (layers): Sequential(
                (0): Conv2d(128, 512, kernel_size=(1, 1), stride=(1, 1))
                (1): Conv2d(512, 512, kernel_size=(3, 3), stride=(1, 1), padding=(1, 1), groups=512)
                (2): GELU()
                (3): Dropout(p=0.0, inplace=False)
                (4): Conv2d(512, 128, kernel_size=(1, 1), stride=(1, 1))
                (5): Dropout(p=0.0, inplace=False)
              )
              (dropout_layer): DropPath()
            )
          )
          (3): TransformerEncoderLayer(
            (norm1): LayerNorm((128,), eps=1e-06, elementwise_affine=True)
            (attn): EfficientMultiheadAttention(
              (attn): MultiheadAttention(
                (out_proj): NonDynamicallyQuantizableLinear(in_features=128, out_features=128, bias=True)
              )
              (proj_drop): Dropout(p=0.0, inplace=False)
              (dropout_layer): DropPath()
              (sr): Conv2d(128, 128, kernel_size=(4, 4), stride=(4, 4))
              (norm): LayerNorm((128,), eps=1e-06, elementwise_affine=True)
            )
            (norm2): LayerNorm((128,), eps=1e-06, elementwise_affine=True)
            (ffn): MixFFN(
              (activate): GELU()
              (layers): Sequential(
                (0): Conv2d(128, 512, kernel_size=(1, 1), stride=(1, 1))
                (1): Conv2d(512, 512, kernel_size=(3, 3), stride=(1, 1), padding=(1, 1), groups=512)
                (2): GELU()
                (3): Dropout(p=0.0, inplace=False)
                (4): Conv2d(512, 128, kernel_size=(1, 1), stride=(1, 1))
                (5): Dropout(p=0.0, inplace=False)
              )
              (dropout_layer): DropPath()
            )
          )
        )
        (2): LayerNorm((128,), eps=1e-06, elementwise_affine=True)
      )
      (2): ModuleList(
        (0): PatchEmbed(
          (projection): Conv2d(128, 320, kernel_size=(3, 3), stride=(2, 2), padding=(1, 1))
          (norm): LayerNorm((320,), eps=1e-06, elementwise_affine=True)
        )
        (1): ModuleList(
          (0): TransformerEncoderLayer(
            (norm1): LayerNorm((320,), eps=1e-06, elementwise_affine=True)
            (attn): EfficientMultiheadAttention(
              (attn): MultiheadAttention(
                (out_proj): NonDynamicallyQuantizableLinear(in_features=320, out_features=320, bias=True)
              )
              (proj_drop): Dropout(p=0.0, inplace=False)
              (dropout_layer): DropPath()
              (sr): Conv2d(320, 320, kernel_size=(2, 2), stride=(2, 2))
              (norm): LayerNorm((320,), eps=1e-06, elementwise_affine=True)
            )
            (norm2): LayerNorm((320,), eps=1e-06, elementwise_affine=True)
            (ffn): MixFFN(
              (activate): GELU()
              (layers): Sequential(
                (0): Conv2d(320, 1280, kernel_size=(1, 1), stride=(1, 1))
                (1): Conv2d(1280, 1280, kernel_size=(3, 3), stride=(1, 1), padding=(1, 1), groups=1280)
                (2): GELU()
                (3): Dropout(p=0.0, inplace=False)
                (4): Conv2d(1280, 320, kernel_size=(1, 1), stride=(1, 1))
                (5): Dropout(p=0.0, inplace=False)
              )
              (dropout_layer): DropPath()
            )
          )
          (1): TransformerEncoderLayer(
            (norm1): LayerNorm((320,), eps=1e-06, elementwise_affine=True)
            (attn): EfficientMultiheadAttention(
              (attn): MultiheadAttention(
                (out_proj): NonDynamicallyQuantizableLinear(in_features=320, out_features=320, bias=True)
              )
              (proj_drop): Dropout(p=0.0, inplace=False)
              (dropout_layer): DropPath()
              (sr): Conv2d(320, 320, kernel_size=(2, 2), stride=(2, 2))
              (norm): LayerNorm((320,), eps=1e-06, elementwise_affine=True)
            )
            (norm2): LayerNorm((320,), eps=1e-06, elementwise_affine=True)
            (ffn): MixFFN(
              (activate): GELU()
              (layers): Sequential(
                (0): Conv2d(320, 1280, kernel_size=(1, 1), stride=(1, 1))
                (1): Conv2d(1280, 1280, kernel_size=(3, 3), stride=(1, 1), padding=(1, 1), groups=1280)
                (2): GELU()
                (3): Dropout(p=0.0, inplace=False)
                (4): Conv2d(1280, 320, kernel_size=(1, 1), stride=(1, 1))
                (5): Dropout(p=0.0, inplace=False)
              )
              (dropout_layer): DropPath()
            )
          )
          (2): TransformerEncoderLayer(
            (norm1): LayerNorm((320,), eps=1e-06, elementwise_affine=True)
            (attn): EfficientMultiheadAttention(
              (attn): MultiheadAttention(
                (out_proj): NonDynamicallyQuantizableLinear(in_features=320, out_features=320, bias=True)
              )
              (proj_drop): Dropout(p=0.0, inplace=False)
              (dropout_layer): DropPath()
              (sr): Conv2d(320, 320, kernel_size=(2, 2), stride=(2, 2))
              (norm): LayerNorm((320,), eps=1e-06, elementwise_affine=True)
            )
            (norm2): LayerNorm((320,), eps=1e-06, elementwise_affine=True)
            (ffn): MixFFN(
              (activate): GELU()
              (layers): Sequential(
                (0): Conv2d(320, 1280, kernel_size=(1, 1), stride=(1, 1))
                (1): Conv2d(1280, 1280, kernel_size=(3, 3), stride=(1, 1), padding=(1, 1), groups=1280)
                (2): GELU()
                (3): Dropout(p=0.0, inplace=False)
                (4): Conv2d(1280, 320, kernel_size=(1, 1), stride=(1, 1))
                (5): Dropout(p=0.0, inplace=False)
              )
              (dropout_layer): DropPath()
            )
          )
          (3): TransformerEncoderLayer(
            (norm1): LayerNorm((320,), eps=1e-06, elementwise_affine=True)
            (attn): EfficientMultiheadAttention(
              (attn): MultiheadAttention(
                (out_proj): NonDynamicallyQuantizableLinear(in_features=320, out_features=320, bias=True)
              )
              (proj_drop): Dropout(p=0.0, inplace=False)
              (dropout_layer): DropPath()
              (sr): Conv2d(320, 320, kernel_size=(2, 2), stride=(2, 2))
              (norm): LayerNorm((320,), eps=1e-06, elementwise_affine=True)
            )
            (norm2): LayerNorm((320,), eps=1e-06, elementwise_affine=True)
            (ffn): MixFFN(
              (activate): GELU()
              (layers): Sequential(
                (0): Conv2d(320, 1280, kernel_size=(1, 1), stride=(1, 1))
                (1): Conv2d(1280, 1280, kernel_size=(3, 3), stride=(1, 1), padding=(1, 1), groups=1280)
                (2): GELU()
                (3): Dropout(p=0.0, inplace=False)
                (4): Conv2d(1280, 320, kernel_size=(1, 1), stride=(1, 1))
                (5): Dropout(p=0.0, inplace=False)
              )
              (dropout_layer): DropPath()
            )
          )
          (4): TransformerEncoderLayer(
            (norm1): LayerNorm((320,), eps=1e-06, elementwise_affine=True)
            (attn): EfficientMultiheadAttention(
              (attn): MultiheadAttention(
                (out_proj): NonDynamicallyQuantizableLinear(in_features=320, out_features=320, bias=True)
              )
              (proj_drop): Dropout(p=0.0, inplace=False)
              (dropout_layer): DropPath()
              (sr): Conv2d(320, 320, kernel_size=(2, 2), stride=(2, 2))
              (norm): LayerNorm((320,), eps=1e-06, elementwise_affine=True)
            )
            (norm2): LayerNorm((320,), eps=1e-06, elementwise_affine=True)
            (ffn): MixFFN(
              (activate): GELU()
              (layers): Sequential(
                (0): Conv2d(320, 1280, kernel_size=(1, 1), stride=(1, 1))
                (1): Conv2d(1280, 1280, kernel_size=(3, 3), stride=(1, 1), padding=(1, 1), groups=1280)
                (2): GELU()
                (3): Dropout(p=0.0, inplace=False)
                (4): Conv2d(1280, 320, kernel_size=(1, 1), stride=(1, 1))
                (5): Dropout(p=0.0, inplace=False)
              )
              (dropout_layer): DropPath()
            )
          )
          (5): TransformerEncoderLayer(
            (norm1): LayerNorm((320,), eps=1e-06, elementwise_affine=True)
            (attn): EfficientMultiheadAttention(
              (attn): MultiheadAttention(
                (out_proj): NonDynamicallyQuantizableLinear(in_features=320, out_features=320, bias=True)
              )
              (proj_drop): Dropout(p=0.0, inplace=False)
              (dropout_layer): DropPath()
              (sr): Conv2d(320, 320, kernel_size=(2, 2), stride=(2, 2))
              (norm): LayerNorm((320,), eps=1e-06, elementwise_affine=True)
            )
            (norm2): LayerNorm((320,), eps=1e-06, elementwise_affine=True)
            (ffn): MixFFN(
              (activate): GELU()
              (layers): Sequential(
                (0): Conv2d(320, 1280, kernel_size=(1, 1), stride=(1, 1))
                (1): Conv2d(1280, 1280, kernel_size=(3, 3), stride=(1, 1), padding=(1, 1), groups=1280)
                (2): GELU()
                (3): Dropout(p=0.0, inplace=False)
                (4): Conv2d(1280, 320, kernel_size=(1, 1), stride=(1, 1))
                (5): Dropout(p=0.0, inplace=False)
              )
              (dropout_layer): DropPath()
            )
          )
        )
        (2): LayerNorm((320,), eps=1e-06, elementwise_affine=True)
      )
      (3): ModuleList(
        (0): PatchEmbed(
          (projection): Conv2d(320, 512, kernel_size=(3, 3), stride=(2, 2), padding=(1, 1))
          (norm): LayerNorm((512,), eps=1e-06, elementwise_affine=True)
        )
        (1): ModuleList(
          (0): TransformerEncoderLayer(
            (norm1): LayerNorm((512,), eps=1e-06, elementwise_affine=True)
            (attn): EfficientMultiheadAttention(
              (attn): MultiheadAttention(
                (out_proj): NonDynamicallyQuantizableLinear(in_features=512, out_features=512, bias=True)
              )
              (proj_drop): Dropout(p=0.0, inplace=False)
              (dropout_layer): DropPath()
            )
            (norm2): LayerNorm((512,), eps=1e-06, elementwise_affine=True)
            (ffn): MixFFN(
              (activate): GELU()
              (layers): Sequential(
                (0): Conv2d(512, 2048, kernel_size=(1, 1), stride=(1, 1))
                (1): Conv2d(2048, 2048, kernel_size=(3, 3), stride=(1, 1), padding=(1, 1), groups=2048)
                (2): GELU()
                (3): Dropout(p=0.0, inplace=False)
                (4): Conv2d(2048, 512, kernel_size=(1, 1), stride=(1, 1))
                (5): Dropout(p=0.0, inplace=False)
              )
              (dropout_layer): DropPath()
            )
          )
          (1): TransformerEncoderLayer(
            (norm1): LayerNorm((512,), eps=1e-06, elementwise_affine=True)
            (attn): EfficientMultiheadAttention(
              (attn): MultiheadAttention(
                (out_proj): NonDynamicallyQuantizableLinear(in_features=512, out_features=512, bias=True)
              )
              (proj_drop): Dropout(p=0.0, inplace=False)
              (dropout_layer): DropPath()
            )
            (norm2): LayerNorm((512,), eps=1e-06, elementwise_affine=True)
            (ffn): MixFFN(
              (activate): GELU()
              (layers): Sequential(
                (0): Conv2d(512, 2048, kernel_size=(1, 1), stride=(1, 1))
                (1): Conv2d(2048, 2048, kernel_size=(3, 3), stride=(1, 1), padding=(1, 1), groups=2048)
                (2): GELU()
                (3): Dropout(p=0.0, inplace=False)
                (4): Conv2d(2048, 512, kernel_size=(1, 1), stride=(1, 1))
                (5): Dropout(p=0.0, inplace=False)
              )
              (dropout_layer): DropPath()
            )
          )
          (2): TransformerEncoderLayer(
            (norm1): LayerNorm((512,), eps=1e-06, elementwise_affine=True)
            (attn): EfficientMultiheadAttention(
              (attn): MultiheadAttention(
                (out_proj): NonDynamicallyQuantizableLinear(in_features=512, out_features=512, bias=True)
              )
              (proj_drop): Dropout(p=0.0, inplace=False)
              (dropout_layer): DropPath()
            )
            (norm2): LayerNorm((512,), eps=1e-06, elementwise_affine=True)
            (ffn): MixFFN(
              (activate): GELU()
              (layers): Sequential(
                (0): Conv2d(512, 2048, kernel_size=(1, 1), stride=(1, 1))
                (1): Conv2d(2048, 2048, kernel_size=(3, 3), stride=(1, 1), padding=(1, 1), groups=2048)
                (2): GELU()
                (3): Dropout(p=0.0, inplace=False)
                (4): Conv2d(2048, 512, kernel_size=(1, 1), stride=(1, 1))
                (5): Dropout(p=0.0, inplace=False)
              )
              (dropout_layer): DropPath()
            )
          )
        )
        (2): LayerNorm((512,), eps=1e-06, elementwise_affine=True)
      )
    )
  )
  init_cfg={'type': 'Pretrained', 'checkpoint': '/home/sidd_s/scratch/saved_models/DDPS/segformer_b2_cityscapes20_singlestep/best_mIoU_iter_64000.pth'}
  (decode_head): SegformerHeadUnetFCHeadMultiStep(
    input_transform=multiple_select, ignore_index=0, align_corners=False
    (loss_decode): CrossEntropyLoss(avg_non_ignore=False)
    (conv_seg): None
    (dropout): Dropout2d(p=0.1, inplace=False)
    (convs): ModuleList(
      (0): ConvModule(
        (conv): Conv2d(64, 256, kernel_size=(1, 1), stride=(1, 1), bias=False)
        (bn): SyncBatchNorm(256, eps=1e-05, momentum=0.1, affine=True, track_running_stats=True)
        (activate): ReLU(inplace=True)
      )
      (1): ConvModule(
        (conv): Conv2d(128, 256, kernel_size=(1, 1), stride=(1, 1), bias=False)
        (bn): SyncBatchNorm(256, eps=1e-05, momentum=0.1, affine=True, track_running_stats=True)
        (activate): ReLU(inplace=True)
      )
      (2): ConvModule(
        (conv): Conv2d(320, 256, kernel_size=(1, 1), stride=(1, 1), bias=False)
        (bn): SyncBatchNorm(256, eps=1e-05, momentum=0.1, affine=True, track_running_stats=True)
        (activate): ReLU(inplace=True)
      )
      (3): ConvModule(
        (conv): Conv2d(512, 256, kernel_size=(1, 1), stride=(1, 1), bias=False)
        (bn): SyncBatchNorm(256, eps=1e-05, momentum=0.1, affine=True, track_running_stats=True)
        (activate): ReLU(inplace=True)
      )
    )
    (fusion_conv): ConvModule(
      (conv): Conv2d(1024, 256, kernel_size=(1, 1), stride=(1, 1), bias=False)
      (bn): SyncBatchNorm(256, eps=1e-05, momentum=0.1, affine=True, track_running_stats=True)
      (activate): ReLU(inplace=True)
    )
    (unet): Unet(
      (init_conv): Conv2d(272, 256, kernel_size=(7, 7), stride=(1, 1), padding=(3, 3))
      (time_mlp): Sequential(
        (0): SinusoidalPosEmb()
        (1): Linear(in_features=256, out_features=1024, bias=True)
        (2): GELU()
        (3): Linear(in_features=1024, out_features=1024, bias=True)
      )
      (downs): ModuleList(
        (0): ModuleList(
          (0): ResnetBlock(
            (mlp): Sequential(
              (0): SiLU()
              (1): Linear(in_features=1024, out_features=512, bias=True)
            )
            (block1): Block(
              (proj): WeightStandardizedConv2d(256, 256, kernel_size=(3, 3), stride=(1, 1), padding=(1, 1))
              (norm): GroupNorm(8, 256, eps=1e-05, affine=True)
              (act): SiLU()
            )
            (block2): Block(
              (proj): WeightStandardizedConv2d(256, 256, kernel_size=(3, 3), stride=(1, 1), padding=(1, 1))
              (norm): GroupNorm(8, 256, eps=1e-05, affine=True)
              (act): SiLU()
            )
            (res_conv): Identity()
          )
          (1): ResnetBlock(
            (mlp): Sequential(
              (0): SiLU()
              (1): Linear(in_features=1024, out_features=512, bias=True)
            )
            (block1): Block(
              (proj): WeightStandardizedConv2d(256, 256, kernel_size=(3, 3), stride=(1, 1), padding=(1, 1))
              (norm): GroupNorm(8, 256, eps=1e-05, affine=True)
              (act): SiLU()
            )
            (block2): Block(
              (proj): WeightStandardizedConv2d(256, 256, kernel_size=(3, 3), stride=(1, 1), padding=(1, 1))
              (norm): GroupNorm(8, 256, eps=1e-05, affine=True)
              (act): SiLU()
            )
            (res_conv): Identity()
          )
          (2): Residual(
            (fn): PreNorm(
              (fn): LinearAttention(
                (to_qkv): Conv2d(256, 384, kernel_size=(1, 1), stride=(1, 1), bias=False)
                (to_out): Sequential(
                  (0): Conv2d(128, 256, kernel_size=(1, 1), stride=(1, 1))
                  (1): LayerNorm()
                )
              )
              (norm): LayerNorm()
            )
          )
          (3): Conv2d(256, 256, kernel_size=(4, 4), stride=(2, 2), padding=(1, 1))
        )
        (1): ModuleList(
          (0): ResnetBlock(
            (mlp): Sequential(
              (0): SiLU()
              (1): Linear(in_features=1024, out_features=512, bias=True)
            )
            (block1): Block(
              (proj): WeightStandardizedConv2d(256, 256, kernel_size=(3, 3), stride=(1, 1), padding=(1, 1))
              (norm): GroupNorm(8, 256, eps=1e-05, affine=True)
              (act): SiLU()
            )
            (block2): Block(
              (proj): WeightStandardizedConv2d(256, 256, kernel_size=(3, 3), stride=(1, 1), padding=(1, 1))
              (norm): GroupNorm(8, 256, eps=1e-05, affine=True)
              (act): SiLU()
            )
            (res_conv): Identity()
          )
          (1): ResnetBlock(
            (mlp): Sequential(
              (0): SiLU()
              (1): Linear(in_features=1024, out_features=512, bias=True)
            )
            (block1): Block(
              (proj): WeightStandardizedConv2d(256, 256, kernel_size=(3, 3), stride=(1, 1), padding=(1, 1))
              (norm): GroupNorm(8, 256, eps=1e-05, affine=True)
              (act): SiLU()
            )
            (block2): Block(
              (proj): WeightStandardizedConv2d(256, 256, kernel_size=(3, 3), stride=(1, 1), padding=(1, 1))
              (norm): GroupNorm(8, 256, eps=1e-05, affine=True)
              (act): SiLU()
            )
            (res_conv): Identity()
          )
          (2): Residual(
            (fn): PreNorm(
              (fn): LinearAttention(
                (to_qkv): Conv2d(256, 384, kernel_size=(1, 1), stride=(1, 1), bias=False)
                (to_out): Sequential(
                  (0): Conv2d(128, 256, kernel_size=(1, 1), stride=(1, 1))
                  (1): LayerNorm()
                )
              )
              (norm): LayerNorm()
            )
          )
          (3): Conv2d(256, 256, kernel_size=(4, 4), stride=(2, 2), padding=(1, 1))
        )
        (2): ModuleList(
          (0): ResnetBlock(
            (mlp): Sequential(
              (0): SiLU()
              (1): Linear(in_features=1024, out_features=512, bias=True)
            )
            (block1): Block(
              (proj): WeightStandardizedConv2d(256, 256, kernel_size=(3, 3), stride=(1, 1), padding=(1, 1))
              (norm): GroupNorm(8, 256, eps=1e-05, affine=True)
              (act): SiLU()
            )
            (block2): Block(
              (proj): WeightStandardizedConv2d(256, 256, kernel_size=(3, 3), stride=(1, 1), padding=(1, 1))
              (norm): GroupNorm(8, 256, eps=1e-05, affine=True)
              (act): SiLU()
            )
            (res_conv): Identity()
          )
          (1): ResnetBlock(
            (mlp): Sequential(
              (0): SiLU()
              (1): Linear(in_features=1024, out_features=512, bias=True)
            )
            (block1): Block(
              (proj): WeightStandardizedConv2d(256, 256, kernel_size=(3, 3), stride=(1, 1), padding=(1, 1))
              (norm): GroupNorm(8, 256, eps=1e-05, affine=True)
              (act): SiLU()
            )
            (block2): Block(
              (proj): WeightStandardizedConv2d(256, 256, kernel_size=(3, 3), stride=(1, 1), padding=(1, 1))
              (norm): GroupNorm(8, 256, eps=1e-05, affine=True)
              (act): SiLU()
            )
            (res_conv): Identity()
          )
          (2): Residual(
            (fn): PreNorm(
              (fn): LinearAttention(
                (to_qkv): Conv2d(256, 384, kernel_size=(1, 1), stride=(1, 1), bias=False)
                (to_out): Sequential(
                  (0): Conv2d(128, 256, kernel_size=(1, 1), stride=(1, 1))
                  (1): LayerNorm()
                )
              )
              (norm): LayerNorm()
            )
          )
          (3): Conv2d(256, 256, kernel_size=(3, 3), stride=(1, 1), padding=(1, 1))
        )
      )
      (ups): ModuleList(
        (0): ModuleList(
          (0): ResnetBlock(
            (mlp): Sequential(
              (0): SiLU()
              (1): Linear(in_features=1024, out_features=512, bias=True)
            )
            (block1): Block(
              (proj): WeightStandardizedConv2d(512, 256, kernel_size=(3, 3), stride=(1, 1), padding=(1, 1))
              (norm): GroupNorm(8, 256, eps=1e-05, affine=True)
              (act): SiLU()
            )
            (block2): Block(
              (proj): WeightStandardizedConv2d(256, 256, kernel_size=(3, 3), stride=(1, 1), padding=(1, 1))
              (norm): GroupNorm(8, 256, eps=1e-05, affine=True)
              (act): SiLU()
            )
            (res_conv): Conv2d(512, 256, kernel_size=(1, 1), stride=(1, 1))
          )
          (1): ResnetBlock(
            (mlp): Sequential(
              (0): SiLU()
              (1): Linear(in_features=1024, out_features=512, bias=True)
            )
            (block1): Block(
              (proj): WeightStandardizedConv2d(512, 256, kernel_size=(3, 3), stride=(1, 1), padding=(1, 1))
              (norm): GroupNorm(8, 256, eps=1e-05, affine=True)
              (act): SiLU()
            )
            (block2): Block(
              (proj): WeightStandardizedConv2d(256, 256, kernel_size=(3, 3), stride=(1, 1), padding=(1, 1))
              (norm): GroupNorm(8, 256, eps=1e-05, affine=True)
              (act): SiLU()
            )
            (res_conv): Conv2d(512, 256, kernel_size=(1, 1), stride=(1, 1))
          )
          (2): Residual(
            (fn): PreNorm(
              (fn): LinearAttention(
                (to_qkv): Conv2d(256, 384, kernel_size=(1, 1), stride=(1, 1), bias=False)
                (to_out): Sequential(
                  (0): Conv2d(128, 256, kernel_size=(1, 1), stride=(1, 1))
                  (1): LayerNorm()
                )
              )
              (norm): LayerNorm()
            )
          )
          (3): Sequential(
            (0): Upsample(scale_factor=2.0, mode=nearest)
            (1): Conv2d(256, 256, kernel_size=(3, 3), stride=(1, 1), padding=(1, 1))
          )
        )
        (1): ModuleList(
          (0): ResnetBlock(
            (mlp): Sequential(
              (0): SiLU()
              (1): Linear(in_features=1024, out_features=512, bias=True)
            )
            (block1): Block(
              (proj): WeightStandardizedConv2d(512, 256, kernel_size=(3, 3), stride=(1, 1), padding=(1, 1))
              (norm): GroupNorm(8, 256, eps=1e-05, affine=True)
              (act): SiLU()
            )
            (block2): Block(
              (proj): WeightStandardizedConv2d(256, 256, kernel_size=(3, 3), stride=(1, 1), padding=(1, 1))
              (norm): GroupNorm(8, 256, eps=1e-05, affine=True)
              (act): SiLU()
            )
            (res_conv): Conv2d(512, 256, kernel_size=(1, 1), stride=(1, 1))
          )
          (1): ResnetBlock(
            (mlp): Sequential(
              (0): SiLU()
              (1): Linear(in_features=1024, out_features=512, bias=True)
            )
            (block1): Block(
              (proj): WeightStandardizedConv2d(512, 256, kernel_size=(3, 3), stride=(1, 1), padding=(1, 1))
              (norm): GroupNorm(8, 256, eps=1e-05, affine=True)
              (act): SiLU()
            )
            (block2): Block(
              (proj): WeightStandardizedConv2d(256, 256, kernel_size=(3, 3), stride=(1, 1), padding=(1, 1))
              (norm): GroupNorm(8, 256, eps=1e-05, affine=True)
              (act): SiLU()
            )
            (res_conv): Conv2d(512, 256, kernel_size=(1, 1), stride=(1, 1))
          )
          (2): Residual(
            (fn): PreNorm(
              (fn): LinearAttention(
                (to_qkv): Conv2d(256, 384, kernel_size=(1, 1), stride=(1, 1), bias=False)
                (to_out): Sequential(
                  (0): Conv2d(128, 256, kernel_size=(1, 1), stride=(1, 1))
                  (1): LayerNorm()
                )
              )
              (norm): LayerNorm()
            )
          )
          (3): Sequential(
            (0): Upsample(scale_factor=2.0, mode=nearest)
            (1): Conv2d(256, 256, kernel_size=(3, 3), stride=(1, 1), padding=(1, 1))
          )
        )
        (2): ModuleList(
          (0): ResnetBlock(
            (mlp): Sequential(
              (0): SiLU()
              (1): Linear(in_features=1024, out_features=512, bias=True)
            )
            (block1): Block(
              (proj): WeightStandardizedConv2d(512, 256, kernel_size=(3, 3), stride=(1, 1), padding=(1, 1))
              (norm): GroupNorm(8, 256, eps=1e-05, affine=True)
              (act): SiLU()
            )
            (block2): Block(
              (proj): WeightStandardizedConv2d(256, 256, kernel_size=(3, 3), stride=(1, 1), padding=(1, 1))
              (norm): GroupNorm(8, 256, eps=1e-05, affine=True)
              (act): SiLU()
            )
            (res_conv): Conv2d(512, 256, kernel_size=(1, 1), stride=(1, 1))
          )
          (1): ResnetBlock(
            (mlp): Sequential(
              (0): SiLU()
              (1): Linear(in_features=1024, out_features=512, bias=True)
            )
            (block1): Block(
              (proj): WeightStandardizedConv2d(512, 256, kernel_size=(3, 3), stride=(1, 1), padding=(1, 1))
              (norm): GroupNorm(8, 256, eps=1e-05, affine=True)
              (act): SiLU()
            )
            (block2): Block(
              (proj): WeightStandardizedConv2d(256, 256, kernel_size=(3, 3), stride=(1, 1), padding=(1, 1))
              (norm): GroupNorm(8, 256, eps=1e-05, affine=True)
              (act): SiLU()
            )
            (res_conv): Conv2d(512, 256, kernel_size=(1, 1), stride=(1, 1))
          )
          (2): Residual(
            (fn): PreNorm(
              (fn): LinearAttention(
                (to_qkv): Conv2d(256, 384, kernel_size=(1, 1), stride=(1, 1), bias=False)
                (to_out): Sequential(
                  (0): Conv2d(128, 256, kernel_size=(1, 1), stride=(1, 1))
                  (1): LayerNorm()
                )
              )
              (norm): LayerNorm()
            )
          )
          (3): Conv2d(256, 256, kernel_size=(3, 3), stride=(1, 1), padding=(1, 1))
        )
      )
      (mid_block1): ResnetBlock(
        (mlp): Sequential(
          (0): SiLU()
          (1): Linear(in_features=1024, out_features=512, bias=True)
        )
        (block1): Block(
          (proj): WeightStandardizedConv2d(256, 256, kernel_size=(3, 3), stride=(1, 1), padding=(1, 1))
          (norm): GroupNorm(8, 256, eps=1e-05, affine=True)
          (act): SiLU()
        )
        (block2): Block(
          (proj): WeightStandardizedConv2d(256, 256, kernel_size=(3, 3), stride=(1, 1), padding=(1, 1))
          (norm): GroupNorm(8, 256, eps=1e-05, affine=True)
          (act): SiLU()
        )
        (res_conv): Identity()
      )
      (mid_attn): Residual(
        (fn): PreNorm(
          (fn): Attention(
            (to_qkv): Conv2d(256, 384, kernel_size=(1, 1), stride=(1, 1), bias=False)
            (to_out): Conv2d(128, 256, kernel_size=(1, 1), stride=(1, 1))
          )
          (norm): LayerNorm()
        )
      )
      (mid_block2): ResnetBlock(
        (mlp): Sequential(
          (0): SiLU()
          (1): Linear(in_features=1024, out_features=512, bias=True)
        )
        (block1): Block(
          (proj): WeightStandardizedConv2d(256, 256, kernel_size=(3, 3), stride=(1, 1), padding=(1, 1))
          (norm): GroupNorm(8, 256, eps=1e-05, affine=True)
          (act): SiLU()
        )
        (block2): Block(
          (proj): WeightStandardizedConv2d(256, 256, kernel_size=(3, 3), stride=(1, 1), padding=(1, 1))
          (norm): GroupNorm(8, 256, eps=1e-05, affine=True)
          (act): SiLU()
        )
        (res_conv): Identity()
      )
      (final_res_block): ResnetBlock(
        (mlp): Sequential(
          (0): SiLU()
          (1): Linear(in_features=1024, out_features=512, bias=True)
        )
        (block1): Block(
          (proj): WeightStandardizedConv2d(512, 256, kernel_size=(3, 3), stride=(1, 1), padding=(1, 1))
          (norm): GroupNorm(8, 256, eps=1e-05, affine=True)
          (act): SiLU()
        )
        (block2): Block(
          (proj): WeightStandardizedConv2d(256, 256, kernel_size=(3, 3), stride=(1, 1), padding=(1, 1))
          (norm): GroupNorm(8, 256, eps=1e-05, affine=True)
          (act): SiLU()
        )
        (res_conv): Conv2d(512, 256, kernel_size=(1, 1), stride=(1, 1))
      )
      (final_conv): Conv2d(256, 256, kernel_size=(1, 1), stride=(1, 1))
    )
    (conv_seg_new): Conv2d(256, 20, kernel_size=(1, 1), stride=(1, 1))
    (embed): Embedding(20, 16)
  )
  init_cfg={'type': 'Pretrained', 'checkpoint': '/home/sidd_s/scratch/saved_models/DDPS/segformer_b2_cityscapes20_singlestep/best_mIoU_iter_64000.pth'}
)
2023-08-08 17:18:48,579 - mmseg - INFO - Loaded 2975 images
2023-08-08 17:18:49,536 - mmseg - INFO - Loaded 500 images
