…
The value is the same before and after calling `init_weights` of DDP  

time_mlp.1.weight - torch.Size([1024, 17]): 
The value is the same before and after calling `init_weights` of DDP  

time_mlp.1.bias - torch.Size([1024]): 
The value is the same before and after calling `init_weights` of DDP  

time_mlp.3.weight - torch.Size([1024, 1024]): 
The value is the same before and after calling `init_weights` of DDP  

time_mlp.3.bias - torch.Size([1024]): 
The value is the same before and after calling `init_weights` of DDP  
2024-06-23 18:23:12,786 - mmseg - INFO - DDP(
  (backbone): ConvNeXt(
    (downsample_layers): ModuleList(
      (0): Sequential(
        (0): Conv2d(3, 96, kernel_size=(4, 4), stride=(4, 4))
        (1): LayerNorm2d((96,), eps=1e-06, elementwise_affine=True)
      )
      (1): Sequential(
        (0): LayerNorm2d((96,), eps=1e-05, elementwise_affine=True)
        (1): Conv2d(96, 192, kernel_size=(2, 2), stride=(2, 2))
      )
      (2): Sequential(
        (0): LayerNorm2d((192,), eps=1e-05, elementwise_affine=True)
        (1): Conv2d(192, 384, kernel_size=(2, 2), stride=(2, 2))
      )
      (3): Sequential(
        (0): LayerNorm2d((384,), eps=1e-05, elementwise_affine=True)
        (1): Conv2d(384, 768, kernel_size=(2, 2), stride=(2, 2))
      )
    )
    (stages): ModuleList(
      (0): Sequential(
        (0): ConvNeXtBlock(
          (depthwise_conv): Conv2d(96, 96, kernel_size=(7, 7), stride=(1, 1), padding=(3, 3), groups=96)
          (norm): LayerNorm2d((96,), eps=1e-06, elementwise_affine=True)
          (pointwise_conv1): Linear(in_features=96, out_features=384, bias=True)
          (act): GELU(approximate=none)
          (pointwise_conv2): Linear(in_features=384, out_features=96, bias=True)
          (drop_path): Identity()
        )
        (1): ConvNeXtBlock(
          (depthwise_conv): Conv2d(96, 96, kernel_size=(7, 7), stride=(1, 1), padding=(3, 3), groups=96)
          (norm): LayerNorm2d((96,), eps=1e-06, elementwise_affine=True)
          (pointwise_conv1): Linear(in_features=96, out_features=384, bias=True)
          (act): GELU(approximate=none)
          (pointwise_conv2): Linear(in_features=384, out_features=96, bias=True)
          (drop_path): DropPath()
        )
        (2): ConvNeXtBlock(
          (depthwise_conv): Conv2d(96, 96, kernel_size=(7, 7), stride=(1, 1), padding=(3, 3), groups=96)
          (norm): LayerNorm2d((96,), eps=1e-06, elementwise_affine=True)
          (pointwise_conv1): Linear(in_features=96, out_features=384, bias=True)
          (act): GELU(approximate=none)
          (pointwise_conv2): Linear(in_features=384, out_features=96, bias=True)
          (drop_path): DropPath()
        )
      )
      (1): Sequential(
        (0): ConvNeXtBlock(
          (depthwise_conv): Conv2d(192, 192, kernel_size=(7, 7), stride=(1, 1), padding=(3, 3), groups=192)
          (norm): LayerNorm2d((192,), eps=1e-06, elementwise_affine=True)
          (pointwise_conv1): Linear(in_features=192, out_features=768, bias=True)
          (act): GELU(approximate=none)
          (pointwise_conv2): Linear(in_features=768, out_features=192, bias=True)
          (drop_path): DropPath()
        )
        (1): ConvNeXtBlock(
          (depthwise_conv): Conv2d(192, 192, kernel_size=(7, 7), stride=(1, 1), padding=(3, 3), groups=192)
          (norm): LayerNorm2d((192,), eps=1e-06, elementwise_affine=True)
          (pointwise_conv1): Linear(in_features=192, out_features=768, bias=True)
          (act): GELU(approximate=none)
          (pointwise_conv2): Linear(in_features=768, out_features=192, bias=True)
          (drop_path): DropPath()
        )
        (2): ConvNeXtBlock(
          (depthwise_conv): Conv2d(192, 192, kernel_size=(7, 7), stride=(1, 1), padding=(3, 3), groups=192)
          (norm): LayerNorm2d((192,), eps=1e-06, elementwise_affine=True)
          (pointwise_conv1): Linear(in_features=192, out_features=768, bias=True)
          (act): GELU(approximate=none)
          (pointwise_conv2): Linear(in_features=768, out_features=192, bias=True)
          (drop_path): DropPath()
        )
      )
      (2): Sequential(
        (0): ConvNeXtBlock(
          (depthwise_conv): Conv2d(384, 384, kernel_size=(7, 7), stride=(1, 1), padding=(3, 3), groups=384)
          (norm): LayerNorm2d((384,), eps=1e-06, elementwise_affine=True)
          (pointwise_conv1): Linear(in_features=384, out_features=1536, bias=True)
          (act): GELU(approximate=none)
          (pointwise_conv2): Linear(in_features=1536, out_features=384, bias=True)
          (drop_path): DropPath()
        )
        (1): ConvNeXtBlock(
          (depthwise_conv): Conv2d(384, 384, kernel_size=(7, 7), stride=(1, 1), padding=(3, 3), groups=384)
          (norm): LayerNorm2d((384,), eps=1e-06, elementwise_affine=True)
          (pointwise_conv1): Linear(in_features=384, out_features=1536, bias=True)
          (act): GELU(approximate=none)
          (pointwise_conv2): Linear(in_features=1536, out_features=384, bias=True)
          (drop_path): DropPath()
        )
        (2): ConvNeXtBlock(
          (depthwise_conv): Conv2d(384, 384, kernel_size=(7, 7), stride=(1, 1), padding=(3, 3), groups=384)
          (norm): LayerNorm2d((384,), eps=1e-06, elementwise_affine=True)
          (pointwise_conv1): Linear(in_features=384, out_features=1536, bias=True)
          (act): GELU(approximate=none)
          (pointwise_conv2): Linear(in_features=1536, out_features=384, bias=True)
          (drop_path): DropPath()
        )
        (3): ConvNeXtBlock(
          (depthwise_conv): Conv2d(384, 384, kernel_size=(7, 7), stride=(1, 1), padding=(3, 3), groups=384)
          (norm): LayerNorm2d((384,), eps=1e-06, elementwise_affine=True)
          (pointwise_conv1): Linear(in_features=384, out_features=1536, bias=True)
          (act): GELU(approximate=none)
          (pointwise_conv2): Linear(in_features=1536, out_features=384, bias=True)
          (drop_path): DropPath()
        )
        (4): ConvNeXtBlock(
          (depthwise_conv): Conv2d(384, 384, kernel_size=(7, 7), stride=(1, 1), padding=(3, 3), groups=384)
          (norm): LayerNorm2d((384,), eps=1e-06, elementwise_affine=True)
          (pointwise_conv1): Linear(in_features=384, out_features=1536, bias=True)
          (act): GELU(approximate=none)
          (pointwise_conv2): Linear(in_features=1536, out_features=384, bias=True)
          (drop_path): DropPath()
        )
        (5): ConvNeXtBlock(
          (depthwise_conv): Conv2d(384, 384, kernel_size=(7, 7), stride=(1, 1), padding=(3, 3), groups=384)
          (norm): LayerNorm2d((384,), eps=1e-06, elementwise_affine=True)
          (pointwise_conv1): Linear(in_features=384, out_features=1536, bias=True)
          (act): GELU(approximate=none)
          (pointwise_conv2): Linear(in_features=1536, out_features=384, bias=True)
          (drop_path): DropPath()
        )
        (6): ConvNeXtBlock(
          (depthwise_conv): Conv2d(384, 384, kernel_size=(7, 7), stride=(1, 1), padding=(3, 3), groups=384)
          (norm): LayerNorm2d((384,), eps=1e-06, elementwise_affine=True)
          (pointwise_conv1): Linear(in_features=384, out_features=1536, bias=True)
          (act): GELU(approximate=none)
          (pointwise_conv2): Linear(in_features=1536, out_features=384, bias=True)
          (drop_path): DropPath()
        )
        (7): ConvNeXtBlock(
          (depthwise_conv): Conv2d(384, 384, kernel_size=(7, 7), stride=(1, 1), padding=(3, 3), groups=384)
          (norm): LayerNorm2d((384,), eps=1e-06, elementwise_affine=True)
          (pointwise_conv1): Linear(in_features=384, out_features=1536, bias=True)
          (act): GELU(approximate=none)
          (pointwise_conv2): Linear(in_features=1536, out_features=384, bias=True)
          (drop_path): DropPath()
        )
        (8): ConvNeXtBlock(
          (depthwise_conv): Conv2d(384, 384, kernel_size=(7, 7), stride=(1, 1), padding=(3, 3), groups=384)
          (norm): LayerNorm2d((384,), eps=1e-06, elementwise_affine=True)
          (pointwise_conv1): Linear(in_features=384, out_features=1536, bias=True)
          (act): GELU(approximate=none)
          (pointwise_conv2): Linear(in_features=1536, out_features=384, bias=True)
          (drop_path): DropPath()
        )
      )
      (3): Sequential(
        (0): ConvNeXtBlock(
          (depthwise_conv): Conv2d(768, 768, kernel_size=(7, 7), stride=(1, 1), padding=(3, 3), groups=768)
          (norm): LayerNorm2d((768,), eps=1e-06, elementwise_affine=True)
          (pointwise_conv1): Linear(in_features=768, out_features=3072, bias=True)
          (act): GELU(approximate=none)
          (pointwise_conv2): Linear(in_features=3072, out_features=768, bias=True)
          (drop_path): DropPath()
        )
        (1): ConvNeXtBlock(
          (depthwise_conv): Conv2d(768, 768, kernel_size=(7, 7), stride=(1, 1), padding=(3, 3), groups=768)
          (norm): LayerNorm2d((768,), eps=1e-06, elementwise_affine=True)
          (pointwise_conv1): Linear(in_features=768, out_features=3072, bias=True)
          (act): GELU(approximate=none)
          (pointwise_conv2): Linear(in_features=3072, out_features=768, bias=True)
          (drop_path): DropPath()
        )
        (2): ConvNeXtBlock(
          (depthwise_conv): Conv2d(768, 768, kernel_size=(7, 7), stride=(1, 1), padding=(3, 3), groups=768)
          (norm): LayerNorm2d((768,), eps=1e-06, elementwise_affine=True)
          (pointwise_conv1): Linear(in_features=768, out_features=3072, bias=True)
          (act): GELU(approximate=none)
          (pointwise_conv2): Linear(in_features=3072, out_features=768, bias=True)
          (drop_path): DropPath()
        )
      )
    )
    (norm0): LayerNorm2d((96,), eps=1e-06, elementwise_affine=True)
    (norm1): LayerNorm2d((192,), eps=1e-06, elementwise_affine=True)
    (norm2): LayerNorm2d((384,), eps=1e-06, elementwise_affine=True)
    (norm3): LayerNorm2d((768,), eps=1e-06, elementwise_affine=True)
  )
  init_cfg={'type': 'Pretrained', 'checkpoint': 'https://download.openmmlab.com/mmclassification/v0/convnext/downstream/convnext-tiny_3rdparty_32xb128-noema_in1k_20220301-795e9634.pth', 'prefix': 'backbone.'}
  (neck): Sequential(
    (0): FPN(
      (lateral_convs): ModuleList(
        (0): ConvModule(
          (conv): Conv2d(96, 256, kernel_size=(1, 1), stride=(1, 1), bias=False)
          (gn): GroupNorm(32, 256, eps=1e-05, affine=True)
        )
        (1): ConvModule(
          (conv): Conv2d(192, 256, kernel_size=(1, 1), stride=(1, 1), bias=False)
          (gn): GroupNorm(32, 256, eps=1e-05, affine=True)
        )
        (2): ConvModule(
          (conv): Conv2d(384, 256, kernel_size=(1, 1), stride=(1, 1), bias=False)
          (gn): GroupNorm(32, 256, eps=1e-05, affine=True)
        )
        (3): ConvModule(
          (conv): Conv2d(768, 256, kernel_size=(1, 1), stride=(1, 1), bias=False)
          (gn): GroupNorm(32, 256, eps=1e-05, affine=True)
        )
      )
      (fpn_convs): ModuleList(
        (0): ConvModule(
          (conv): Conv2d(256, 256, kernel_size=(3, 3), stride=(1, 1), padding=(1, 1), bias=False)
          (gn): GroupNorm(32, 256, eps=1e-05, affine=True)
        )
        (1): ConvModule(
          (conv): Conv2d(256, 256, kernel_size=(3, 3), stride=(1, 1), padding=(1, 1), bias=False)
          (gn): GroupNorm(32, 256, eps=1e-05, affine=True)
        )
        (2): ConvModule(
          (conv): Conv2d(256, 256, kernel_size=(3, 3), stride=(1, 1), padding=(1, 1), bias=False)
          (gn): GroupNorm(32, 256, eps=1e-05, affine=True)
        )
        (3): ConvModule(
          (conv): Conv2d(256, 256, kernel_size=(3, 3), stride=(1, 1), padding=(1, 1), bias=False)
          (gn): GroupNorm(32, 256, eps=1e-05, affine=True)
        )
      )
    )
    init_cfg={'type': 'Xavier', 'layer': 'Conv2d', 'distribution': 'uniform'}
    (1): MultiStageMerging(
      (down): ConvModule(
        (conv): Conv2d(1024, 256, kernel_size=(1, 1), stride=(1, 1), bias=False)
        (gn): GroupNorm(32, 256, eps=1e-05, affine=True)
      )
    )
    init_cfg={'type': 'Xavier', 'layer': 'Conv2d', 'distribution': 'uniform'}
  )
  (decode_head): DeformableHeadWithTime(
    input_transform=multiple_select, ignore_index=255, align_corners=False
    (loss_decode): CrossEntropyLoss(avg_non_ignore=False)
    (conv_seg): Conv2d(256, 19, kernel_size=(1, 1), stride=(1, 1))
    (encoder): DetrTransformerEncoder(
      (layers): ModuleList(
        (0): BaseTransformerLayer(
          (attentions): ModuleList(
            (0): MultiScaleDeformableAttention(
              (dropout): Dropout(p=0.0, inplace=False)
              (sampling_offsets): Linear(in_features=256, out_features=64, bias=True)
              (attention_weights): Linear(in_features=256, out_features=32, bias=True)
              (value_proj): Linear(in_features=256, out_features=256, bias=True)
              (output_proj): Linear(in_features=256, out_features=256, bias=True)
            )
          )
          (time_mlp): Sequential(
            (0): SiLU()
            (1): Linear(in_features=1024, out_features=512, bias=True)
          )
          (ffns): ModuleList(
            (0): FFN(
              (activate): GELU(approximate=none)
              (layers): Sequential(
                (0): Sequential(
                  (0): Linear(in_features=256, out_features=1024, bias=True)
                  (1): GELU(approximate=none)
                  (2): Dropout(p=0.0, inplace=False)
                )
                (1): Linear(in_features=1024, out_features=256, bias=True)
                (2): Dropout(p=0.0, inplace=False)
              )
              (dropout_layer): Identity()
            )
          )
          (norms): ModuleList(
            (0): LayerNorm((256,), eps=1e-05, elementwise_affine=True)
            (1): LayerNorm((256,), eps=1e-05, elementwise_affine=True)
          )
        )
        (1): BaseTransformerLayer(
          (attentions): ModuleList(
            (0): MultiScaleDeformableAttention(
              (dropout): Dropout(p=0.0, inplace=False)
              (sampling_offsets): Linear(in_features=256, out_features=64, bias=True)
              (attention_weights): Linear(in_features=256, out_features=32, bias=True)
              (value_proj): Linear(in_features=256, out_features=256, bias=True)
              (output_proj): Linear(in_features=256, out_features=256, bias=True)
            )
          )
          (time_mlp): Sequential(
            (0): SiLU()
            (1): Linear(in_features=1024, out_features=512, bias=True)
          )
          (ffns): ModuleList(
            (0): FFN(
              (activate): GELU(approximate=none)
              (layers): Sequential(
                (0): Sequential(
                  (0): Linear(in_features=256, out_features=1024, bias=True)
                  (1): GELU(approximate=none)
                  (2): Dropout(p=0.0, inplace=False)
                )
                (1): Linear(in_features=1024, out_features=256, bias=True)
                (2): Dropout(p=0.0, inplace=False)
              )
              (dropout_layer): Identity()
            )
          )
          (norms): ModuleList(
            (0): LayerNorm((256,), eps=1e-05, elementwise_affine=True)
            (1): LayerNorm((256,), eps=1e-05, elementwise_affine=True)
          )
        )
        (2): BaseTransformerLayer(
          (attentions): ModuleList(
            (0): MultiScaleDeformableAttention(
              (dropout): Dropout(p=0.0, inplace=False)
              (sampling_offsets): Linear(in_features=256, out_features=64, bias=True)
              (attention_weights): Linear(in_features=256, out_features=32, bias=True)
              (value_proj): Linear(in_features=256, out_features=256, bias=True)
              (output_proj): Linear(in_features=256, out_features=256, bias=True)
            )
          )
          (time_mlp): Sequential(
            (0): SiLU()
            (1): Linear(in_features=1024, out_features=512, bias=True)
          )
          (ffns): ModuleList(
            (0): FFN(
              (activate): GELU(approximate=none)
              (layers): Sequential(
                (0): Sequential(
                  (0): Linear(in_features=256, out_features=1024, bias=True)
                  (1): GELU(approximate=none)
                  (2): Dropout(p=0.0, inplace=False)
                )
                (1): Linear(in_features=1024, out_features=256, bias=True)
                (2): Dropout(p=0.0, inplace=False)
              )
              (dropout_layer): Identity()
            )
          )
          (norms): ModuleList(
            (0): LayerNorm((256,), eps=1e-05, elementwise_affine=True)
            (1): LayerNorm((256,), eps=1e-05, elementwise_affine=True)
          )
        )
        (3): BaseTransformerLayer(
          (attentions): ModuleList(
            (0): MultiScaleDeformableAttention(
              (dropout): Dropout(p=0.0, inplace=False)
              (sampling_offsets): Linear(in_features=256, out_features=64, bias=True)
              (attention_weights): Linear(in_features=256, out_features=32, bias=True)
              (value_proj): Linear(in_features=256, out_features=256, bias=True)
              (output_proj): Linear(in_features=256, out_features=256, bias=True)
            )
          )
          (time_mlp): Sequential(
            (0): SiLU()
            (1): Linear(in_features=1024, out_features=512, bias=True)
          )
          (ffns): ModuleList(
            (0): FFN(
              (activate): GELU(approximate=none)
              (layers): Sequential(
                (0): Sequential(
                  (0): Linear(in_features=256, out_features=1024, bias=True)
                  (1): GELU(approximate=none)
                  (2): Dropout(p=0.0, inplace=False)
                )
                (1): Linear(in_features=1024, out_features=256, bias=True)
                (2): Dropout(p=0.0, inplace=False)
              )
              (dropout_layer): Identity()
            )
          )
          (norms): ModuleList(
            (0): LayerNorm((256,), eps=1e-05, elementwise_affine=True)
            (1): LayerNorm((256,), eps=1e-05, elementwise_affine=True)
          )
        )
        (4): BaseTransformerLayer(
          (attentions): ModuleList(
            (0): MultiScaleDeformableAttention(
              (dropout): Dropout(p=0.0, inplace=False)
              (sampling_offsets): Linear(in_features=256, out_features=64, bias=True)
              (attention_weights): Linear(in_features=256, out_features=32, bias=True)
              (value_proj): Linear(in_features=256, out_features=256, bias=True)
              (output_proj): Linear(in_features=256, out_features=256, bias=True)
            )
          )
          (time_mlp): Sequential(
            (0): SiLU()
            (1): Linear(in_features=1024, out_features=512, bias=True)
          )
          (ffns): ModuleList(
            (0): FFN(
              (activate): GELU(approximate=none)
              (layers): Sequential(
                (0): Sequential(
                  (0): Linear(in_features=256, out_features=1024, bias=True)
                  (1): GELU(approximate=none)
                  (2): Dropout(p=0.0, inplace=False)
                )
                (1): Linear(in_features=1024, out_features=256, bias=True)
                (2): Dropout(p=0.0, inplace=False)
              )
              (dropout_layer): Identity()
            )
          )
          (norms): ModuleList(
            (0): LayerNorm((256,), eps=1e-05, elementwise_affine=True)
            (1): LayerNorm((256,), eps=1e-05, elementwise_affine=True)
          )
        )
        (5): BaseTransformerLayer(
          (attentions): ModuleList(
            (0): MultiScaleDeformableAttention(
              (dropout): Dropout(p=0.0, inplace=False)
              (sampling_offsets): Linear(in_features=256, out_features=64, bias=True)
              (attention_weights): Linear(in_features=256, out_features=32, bias=True)
              (value_proj): Linear(in_features=256, out_features=256, bias=True)
              (output_proj): Linear(in_features=256, out_features=256, bias=True)
            )
          )
          (time_mlp): Sequential(
            (0): SiLU()
            (1): Linear(in_features=1024, out_features=512, bias=True)
          )
          (ffns): ModuleList(
            (0): FFN(
              (activate): GELU(approximate=none)
              (layers): Sequential(
                (0): Sequential(
                  (0): Linear(in_features=256, out_features=1024, bias=True)
                  (1): GELU(approximate=none)
                  (2): Dropout(p=0.0, inplace=False)
                )
                (1): Linear(in_features=1024, out_features=256, bias=True)
                (2): Dropout(p=0.0, inplace=False)
              )
              (dropout_layer): Identity()
            )
          )
          (norms): ModuleList(
            (0): LayerNorm((256,), eps=1e-05, elementwise_affine=True)
            (1): LayerNorm((256,), eps=1e-05, elementwise_affine=True)
          )
        )
      )
    )
    (positional_encoding): SinePositionalEncoding(num_feats=128, temperature=10000, normalize=True, scale=6.283185307179586, eps=1e-06)
  )
  init_cfg={'type': 'Normal', 'std': 0.01, 'override': {'name': 'conv_seg'}}
  (auxiliary_head): FCNHead(
    input_transform=None, ignore_index=255, align_corners=False
    (loss_decode): CrossEntropyLoss(avg_non_ignore=False)
    (conv_seg): Conv2d(256, 19, kernel_size=(1, 1), stride=(1, 1))
    (dropout): Dropout2d(p=0.1, inplace=False)
    (convs): Sequential(
      (0): ConvModule(
        (conv): Conv2d(256, 256, kernel_size=(3, 3), stride=(1, 1), padding=(1, 1), bias=False)
        (bn): SyncBatchNorm(256, eps=1e-05, momentum=0.1, affine=True, track_running_stats=True)
        (activate): ReLU(inplace=True)
      )
    )
  )
  init_cfg={'type': 'Normal', 'std': 0.01, 'override': {'name': 'conv_seg'}}
  (embedding_table): Embedding(20, 256)
  (transform): ConvModule(
    (conv): Conv2d(512, 256, kernel_size=(1, 1), stride=(1, 1))
  )
  (time_mlp): Sequential(
    (0): LearnedSinusoidalPosEmb()
    (1): Linear(in_features=17, out_features=1024, bias=True)
    (2): GELU(approximate=none)
    (3): Linear(in_features=1024, out_features=1024, bias=True)
  )
)
2024-06-23 18:23:12,790 - mmseg - INFO - Model size:136.06
2024-06-23 18:23:12,824 - mmseg - INFO - Loaded 2975 images
2024-06-23 18:23:14,145 - mmseg - INFO - Loaded 500 images
2024-06-23 18:23:14,146 - mmseg - INFO - Start running, host: ai24resch01002@ai-dgx201, work_dir: /raid/ai24resch01002/Diffusion_conditional_prior_segmentation/DDP/segmentation/work_dirs/ddp_convnext_t_4x4_512x1024_160k_cityscapes
…
